…
[38;5;15m    [39m[38;5;204mENABLED[39m[38;5;15m:[39m[38;5;15m [39m[38;5;141mfalse[39m
[38;5;15m    [39m[38;5;204mNUM_ITER[39m[38;5;15m:[39m[38;5;15m [39m[38;5;141m200[39m
[38;5;204mVERSION[39m[38;5;15m:[39m[38;5;15m [39m[38;5;141m2[39m
[38;5;204mVIS_PERIOD[39m[38;5;15m:[39m[38;5;15m [39m[38;5;141m0[39m

[02/07 10:20:48] detectron2 INFO: Full config saved to ./output/uwsam_vit_h_lora_standard_bs/config.yaml
[02/07 10:20:48] d2.utils.env INFO: Using a generated random seed 52385601
[02/07 10:21:53] d2.engine.defaults INFO: Model:
UWSAM(
  (backbone): SAMBackbone(
    (vit): ImageEncoderViT(
      (patch_embed): PatchEmbed(
        (proj): Conv2d(3, 1280, kernel_size=(16, 16), stride=(16, 16))
      )
      (blocks): ModuleList(
        (0-31): 32 x CheckpointedBlock(
          (block): Block(
            (norm1): LayerNorm((1280,), eps=1e-05, elementwise_affine=True)
            (attn): Attention(
              (qkv): LoRA_SAM_QKV(
                (qkv): Linear(in_features=1280, out_features=3840, bias=True)
                (lora_A_q): Linear(in_features=1280, out_features=8, bias=False)
                (lora_B_q): Linear(in_features=8, out_features=1280, bias=False)
                (lora_A_v): Linear(in_features=1280, out_features=8, bias=False)
                (lora_B_v): Linear(in_features=8, out_features=1280, bias=False)
                (dropout): Dropout(p=0.05, inplace=False)
              )
              (proj): Linear(in_features=1280, out_features=1280, bias=True)
            )
            (norm2): LayerNorm((1280,), eps=1e-05, elementwise_affine=True)
            (mlp): MLPBlock(
              (lin1): Linear(in_features=1280, out_features=5120, bias=True)
              (lin2): Linear(in_features=5120, out_features=1280, bias=True)
              (act): GELU(approximate='none')
            )
          )
        )
      )
      (neck): Sequential(
        (0): Conv2d(1280, 256, kernel_size=(1, 1), stride=(1, 1), bias=False)
        (1): LayerNorm2d()
        (2): Conv2d(256, 256, kernel_size=(3, 3), stride=(1, 1), padding=(1, 1), bias=False)
        (3): LayerNorm2d()
      )
    )
  )
  (proposal_generator): EUPG(
    (channel_attention): ChannelAttention(
      (avg_pool): AdaptiveAvgPool2d(output_size=1)
      (max_pool): AdaptiveMaxPool2d(output_size=1)
      (fc): Sequential(
        (0): Conv2d(256, 16, kernel_size=(1, 1), stride=(1, 1), bias=False)
        (1): LeakyReLU(negative_slope=0.2, inplace=True)
        (2): Conv2d(16, 256, kernel_size=(1, 1), stride=(1, 1), bias=False)
      )
      (sigmoid): Sigmoid()
    )
    (multiscale_gen): MultiScaleGenerator(
      (up_p3): Sequential(
        (0): ConvTranspose2d(256, 256, kernel_size=(2, 2), stride=(2, 2))
        (1): GroupNorm(32, 256, eps=1e-05, affine=True)
        (2): GELU(approximate='none')
      )
      (up_p2): Sequential(
        (0): ConvTranspose2d(256, 256, kernel_size=(4, 4), stride=(4, 4))
        (1): GroupNorm(32, 256, eps=1e-05, affine=True)
        (2): GELU(approximate='none')
      )
      (p2_out): Conv2d(256, 256, kernel_size=(3, 3), stride=(1, 1), padding=(1, 1))
      (p3_out): Conv2d(256, 256, kernel_size=(3, 3), stride=(1, 1), padding=(1, 1))
      (p4_out): Conv2d(256, 256, kernel_size=(3, 3), stride=(1, 1), padding=(1, 1))
    )
    (pe_layer): PositionEmbeddingRandom()
    (anchor_generator): DefaultAnchorGenerator(
      (cell_anchors): BufferList()
    )
    (rpn_head): StandardRPNHead(
      (conv): Conv2d(
        256, 256, kernel_size=(3, 3), stride=(1, 1), padding=(1, 1)
        (activation): ReLU()
      )
      (objectness_logits): Conv2d(256, 9, kernel_size=(1, 1), stride=(1, 1))
      (anchor_deltas): Conv2d(256, 36, kernel_size=(1, 1), stride=(1, 1))
    )
    (rpn): RPN(
      (rpn_head): StandardRPNHead(
        (conv): Conv2d(
          256, 256, kernel_size=(3, 3), stride=(1, 1), padding=(1, 1)
          (activation): ReLU()
        )
        (objectness_logits): Conv2d(256, 9, kernel_size=(1, 1), stride=(1, 1))
        (anchor_deltas): Conv2d(256, 36, kernel_size=(1, 1), stride=(1, 1))
      )
      (anchor_generator): DefaultAnchorGenerator(
        (cell_anchors): BufferList()
      )
    )
    (pooler): ROIPooler(
      (level_poolers): ModuleList(
        (0): ROIAlign(output_size=(14, 14), spatial_scale=0.25, sampling_ratio=0, aligned=True)
        (1): ROIAlign(output_size=(14, 14), spatial_scale=0.125, sampling_ratio=0, aligned=True)
        (2): ROIAlign(output_size=(14, 14), spatial_scale=0.0625, sampling_ratio=0, aligned=True)
      )
    )
    (prompt_head): PromptEncoder(
      (conv): Sequential(
        (0): Conv2d(256, 256, kernel_size=(3, 3), stride=(2, 2), padding=(1, 1))
        (1): BatchNorm2d(256, eps=1e-05, momentum=0.1, affine=True, track_running_stats=True)
        (2): ReLU(inplace=True)
      )
      (mlp): Sequential(
        (0): Flatten(start_dim=1, end_dim=-1)
        (1): Linear(in_features=12544, out_features=256, bias=True)
        (2): ReLU(inplace=True)
        (3): Linear(in_features=256, out_features=256, bias=True)
        (4): ReLU(inplace=True)
        (5): Linear(in_features=256, out_features=2560, bias=True)
      )
    )
    (cls_head): ClassificationHead(
      (conv): Conv2d(256, 256, kernel_size=(3, 3), stride=(1, 1), padding=(1, 1))
      (mlp): Sequential(
        (0): Linear(in_features=50176, out_features=1024, bias=True)
        (1): GELU(approximate='none')
        (2): Linear(in_features=1024, out_features=11, bias=True)
      )
    )
    (box_head): BoxRegressionHead(
      (conv): Conv2d(256, 256, kernel_size=(3, 3), stride=(1, 1), padding=(1, 1))
      (fc1): Linear(in_features=50176, out_features=1024, bias=True)
      (fc2): Linear(in_features=1024, out_features=1024, bias=True)
      (output_layer): Linear(in_features=1024, out_features=4, bias=True)
      (mlp): Sequential(
        (0): Linear(in_features=50176, out_features=1024, bias=True)
        (1): ReLU(inplace=True)
        (2): Linear(in_features=1024, out_features=1024, bias=True)
        (3): ReLU(inplace=True)
        (4): Linear(in_features=1024, out_features=4, bias=True)
      )
    )
  )
  (loss_cls): CrossEntropyLoss()
  (transformer): TwoWayTransformer(
    (layers): ModuleList(
      (0-1): 2 x TwoWayAttentionBlock(
        (self_attn): Attention(
          (q_proj): Linear(in_features=256, out_features=256, bias=True)
          (k_proj): Linear(in_features=256, out_features=256, bias=True)
          (v_proj): Linear(in_features=256, out_features=256, bias=True)
          (out_proj): Linear(in_features=256, out_features=256, bias=True)
        )
        (norm1): LayerNorm((256,), eps=1e-05, elementwise_affine=True)
        (cross_attn_token_to_image): Attention(
          (q_proj): Linear(in_features=256, out_features=128, bias=True)
          (k_proj): Linear(in_features=256, out_features=128, bias=True)
          (v_proj): Linear(in_features=256, out_features=128, bias=True)
          (out_proj): Linear(in_features=128, out_features=256, bias=True)
        )
        (norm2): LayerNorm((256,), eps=1e-05, elementwise_affine=True)
        (mlp): MLPBlock(
          (lin1): Linear(in_features=256, out_features=2048, bias=True)
          (lin2): Linear(in_features=2048, out_features=256, bias=True)
          (act): ReLU()
        )
        (norm3): LayerNorm((256,), eps=1e-05, elementwise_affine=True)
        (norm4): LayerNorm((256,), eps=1e-05, elementwise_affine=True)
        (cross_attn_image_to_token): Attention(
          (q_proj): Linear(in_features=256, out_features=128, bias=True)
          (k_proj): Linear(in_features=256, out_features=128, bias=True)
          (v_proj): Linear(in_features=256, out_features=128, bias=True)
          (out_proj): Linear(in_features=128, out_features=256, bias=True)
        )
      )
    )
    (final_attn_token_to_image): Attention(
      (q_proj): Linear(in_features=256, out_features=128, bias=True)
      (k_proj): Linear(in_features=256, out_features=128, bias=True)
      (v_proj): Linear(in_features=256, out_features=128, bias=True)
      (out_proj): Linear(in_features=128, out_features=256, bias=True)
    )
    (norm_final_attn): LayerNorm((256,), eps=1e-05, elementwise_affine=True)
  )
  (mask_decoder): MaskDecoder(
    (transformer): TwoWayTransformer(
      (layers): ModuleList(
        (0-1): 2 x TwoWayAttentionBlock(
          (self_attn): Attention(
            (q_proj): Linear(in_features=256, out_features=256, bias=True)
            (k_proj): Linear(in_features=256, out_features=256, bias=True)
            (v_proj): Linear(in_features=256, out_features=256, bias=True)
            (out_proj): Linear(in_features=256, out_features=256, bias=True)
          )
          (norm1): LayerNorm((256,), eps=1e-05, elementwise_affine=True)
          (cross_attn_token_to_image): Attention(
            (q_proj): Linear(in_features=256, out_features=128, bias=True)
            (k_proj): Linear(in_features=256, out_features=128, bias=True)
            (v_proj): Linear(in_features=256, out_features=128, bias=True)
            (out_proj): Linear(in_features=128, out_features=256, bias=True)
          )
          (norm2): LayerNorm((256,), eps=1e-05, elementwise_affine=True)
          (mlp): MLPBlock(
            (lin1): Linear(in_features=256, out_features=2048, bias=True)
            (lin2): Linear(in_features=2048, out_features=256, bias=True)
            (act): ReLU()
          )
          (norm3): LayerNorm((256,), eps=1e-05, elementwise_affine=True)
          (norm4): LayerNorm((256,), eps=1e-05, elementwise_affine=True)
          (cross_attn_image_to_token): Attention(
            (q_proj): Linear(in_features=256, out_features=128, bias=True)
            (k_proj): Linear(in_features=256, out_features=128, bias=True)
            (v_proj): Linear(in_features=256, out_features=128, bias=True)
            (out_proj): Linear(in_features=128, out_features=256, bias=True)
          )
        )
      )
      (final_attn_token_to_image): Attention(
        (q_proj): Linear(in_features=256, out_features=128, bias=True)
        (k_proj): Linear(in_features=256, out_features=128, bias=True)
        (v_proj): Linear(in_features=256, out_features=128, bias=True)
        (out_proj): Linear(in_features=128, out_features=256, bias=True)
      )
      (norm_final_attn): LayerNorm((256,), eps=1e-05, elementwise_affine=True)
    )
    (iou_token): Embedding(1, 256)
    (mask_tokens): Embedding(4, 256)
    (output_upscaling): Sequential(
      (0): ConvTranspose2d(256, 64, kernel_size=(2, 2), stride=(2, 2))
      (1): LayerNorm2d()
      (2): GELU(approximate='none')
      (3): ConvTranspose2d(64, 32, kernel_size=(2, 2), stride=(2, 2))
      (4): GELU(approximate='none')
    )
    (output_hypernetworks_mlps): ModuleList(
      (0-3): 4 x MLP(
        (layers): ModuleList(
          (0-1): 2 x Linear(in_features=256, out_features=256, bias=True)
          (2): Linear(in_features=256, out_features=32, bias=True)
        )
      )
    )
    (iou_prediction_head): MLP(
      (layers): ModuleList(
        (0-1): 2 x Linear(in_features=256, out_features=256, bias=True)
        (2): Linear(in_features=256, out_features=4, bias=True)
      )
    )
  )
  (prompt_encoder): PromptEncoder(
    (pe_layer): PositionEmbeddingRandom()
    (point_embeddings): ModuleList(
      (0-3): 4 x Embedding(1, 256)
    )
    (not_a_point_embed): Embedding(1, 256)
    (mask_downscaling): Sequential(
      (0): Conv2d(1, 4, kernel_size=(2, 2), stride=(2, 2))
      (1): LayerNorm2d()
      (2): GELU(approximate='none')
      (3): Conv2d(4, 16, kernel_size=(2, 2), stride=(2, 2))
      (4): LayerNorm2d()
      (5): GELU(approximate='none')
      (6): Conv2d(16, 256, kernel_size=(1, 1), stride=(1, 1))
    )
    (no_mask_embed): Embedding(1, 256)
  )
  (pe_layer): PositionEmbeddingRandom()
  (criterion): UWSAMCriterion()
)
[02/07 10:21:53] d2.data.dataset_mapper INFO: [DatasetMapper] Augmentations used in training: [RandomFlip(), ResizeScale(min_scale=0.1, max_scale=2.0, target_height=1024, target_width=1024), FixedSizeCrop(crop_size=(1024, 1024), pad_value=128.0), RandomBrightness(intensity_min=0.9, intensity_max=1.1), RandomContrast(intensity_min=0.9, intensity_max=1.1)]
…
